NEAT/FlaskApp/models/evolved_neat_model.pt (torch, 2280 bytes, 4 tensors)

layers.0.weight f4 [4, 4]
-0.60930026 -0.16700235 -0.23718897 0.12286911 0.6338919 -0.2345696 -0.0972738 -0.3117878
-0.4348005 -0.07435028 -0.1754598 0.6947579 -0.0124840755 -0.041241724 0.0032076028 -0.27555385
00000000: 1afb 1bbf aa02 2bbe aae1 72be cda2 fb3d
00000010: bd46 223f 0333 70be 7c37 c7bd a7a2 9fbe
00000020: 2c9e debe f644 98bd bcab 33be a7db 313f
00000030: 028a 4cbc 15ed 28bd a536 523b 6515 8dbe

layers.0.bias f4 [4]
-0.1752861 0.2682725 -0.27761787 0.32768235
00000000: 337e 33be 035b 893e ee23 8ebe fbc5 a73e

layers.1.weight f4 [2, 4]
-0.6664107 -0.40554425 -1.4577471 0.090130605 0.1851132 -0.56461924 0.025454806 -0.40721795
00000000: e499 2abf 7fa3 cfbe 7597 babf 6596 b83d
00000010: 518e 3d3e e38a 10bf 9986 d03c df7e d0be

layers.1.bias f4 [2]
0.35763586 0.23855172
00000000: 0c1c b73e e746 743e
