NEAT/evolved_neat_model.pt (torch, 2280 bytes, 4 tensors)

layers.0.weight f4 [4, 4]
000000 b3 71 fd 3b c2 67 ff bd 88 fb 99 3e 7e 8e 4b 3f
       0.0077345013 -0.12470962 0.30074716 0.795143
000010 bb 47 e6 3d 08 83 f4 3e a0 b4 88 bd 13 76 b4 be
       0.1124415 0.4775622 -0.066750765 -0.35246333
000020 9e 27 9a be a2 ea ba be 70 37 58 be c3 48 ab bb
       -0.3010835 -0.36507136 -0.21114898 -0.0052271797
000030 74 08 03 3f 99 ed 99 3d 79 fe ee 3e 77 8f fb bb
       0.51184773 0.07516021 0.46678522 -0.0076770145

layers.0.bias f4 [4]
000000 87 c9 12 be 7e 44 f4 3d f7 31 90 3e fb 63 81 be
       -0.14334689 0.11927126 0.2816312 -0.25271592

layers.1.weight f4 [2, 4]
000000 46 0d 0d be ee 83 1f 3f 4c 8e 4c 3f 55 cb bc 3e
       -0.13774595 0.62310684 0.7990463 0.3687388
000010 2c b6 a6 3e cf 41 8e be 31 98 bd 3e c7 1c 82 bf
       0.3256086 -0.27784583 0.37030175 -1.0165032

layers.1.bias f4 [2]
000000 66 54 65 3f a7 30 91 3e
       0.89581907 0.2835743
